model/exports/go-ozwell.onnx (onnx, 26747 bytes, 3 tensors)

conv_layers.0.bias f4 [32]
-0.81213856 -0.1645601 -0.1640056 -0.17796637 -0.119758934 -0.8102189 -0.4420314 -0.29381958
-0.22515333 -0.27857476 -0.163856 -0.4493181 -0.17864625 -0.7043761 -0.7516057 -0.08920778
-0.72420883 -0.31659782 -0.23447461 -0.19818749 -0.15374194 -0.10644868 -0.66228175 -0.16244063
-0.03375639 -0.43717036 -0.7394269 -0.76498497 -0.17511523 -0.7350341 -0.4947989 -0.2757521
00000000: 50e8 4fbf 7182 28be 16f1 27be d13c 36be
00000010: 2c44 f5bd 816a 4fbf f151 e2be 856f 96be
00000020: 988e 66be 5aa1 8ebe dec9 27be 060d e6be
00000030: 0bef 36be fe51 34bf 3b69 40bf 92b2 b6bd
00000040: c065 39bf 1c19 a2be 1d1a 70be a9f1 4abe
00000050: 876e 1dbe c401 dabd 4c8b 29bf d656 26be
00000060: 2444 0abd cbd4 dfbe 154b 3dbf 0ed6 43bf
00000070: 6851 33be 322b 3cbf 4856 fdbe 612f 8dbe

conv_layers.5.bias f4 [64]
-0.8992145 0.023769334 -0.4541059 -1.3242211 -0.31081262 -0.29342636 0.20938474 0.2959661
0.18358777 0.19397986 -0.51472074 0.08410518 -0.95944905 0.16893798 -0.14158465 0.31380412
-0.35174456 0.16409285 0.27659348 0.09347531 0.91233855 0.08270995 0.19050029 -0.037704077
-0.43327028 0.33985525 -0.43991354 0.059650198 0.089034334 -0.46663886 0.13997857 -0.23736344
-0.43638352 -0.20833951 0.13575238 0.032829836 -0.28747553 0.26129758 0.41525504 0.63421917
0.032910306 0.23405886 0.5385486 -0.033782512 0.19151346 0.3982977 0.17709926 0.10968652
-0.38091516 -0.121017635 0.20912924 -0.16007414 0.0142890215 0.21369423 0.045818496 -0.026217476
0.16987962 0.15130931 0.6604792 0.24367358 0.34078556 -0.21942493 0.3166437 0.12768623
00000000: ec32 66bf e8b7 c23c 9280 e8be 1480 a9bf
00000010: d522 9fbe fb3b 96be f468 563e de88 973e
00000020: 6ffe 3b3e a8a2 463e bdc4 03bf 563f ac3d
00000030: 749e 75bf 14fe 2c3e 91fb 10be efaa a03e
00000040: dd17 b4be f507 283e a99d 8d3e fc6f bf3d
00000050: 058f 693f d663 a93d 8212 433e 976f 1abd
00000060: 9ad5 ddbe 8201 ae3e 593c e1be c453 743d
00000070: a257 b63d 4aeb eebe 8b56 0f3e 670f 73be
00000080: a96d dfbe f456 55be ac02 0b3e 9478 063d
00000090: fe2f 93be ccc8 853e 4f9c d43e 305c 223f
000000a0: f5cc 063d 20ad 6f3e 52de 093f 885f 0abd
000000b0: 1b1c 443e aded cb3e 8259 353e 54a3 e03d
000000c0: 5007 c3be 18d8 f7bd fa25 563e 7aea 23be
000000d0: 801c 6a3c a9d2 5a3e 2dac 3b3d 08c6 d6bc
000000e0: ecf4 2d3e d4f0 1a3e 2a15 293f 9185 793e
000000f0: 727b ae3e eeb0 60be 1f1f a23e 2ec0 023e

classifier.7.bias f4 [2]
-0.3292462 0.1740352
00000000: f592 a8be 4936 323e
