model/exports/hey-ozwell.onnx (onnx, 26756 bytes, 3 tensors)

conv_layers.0.bias f4 [32]
00000000: 9e49 28bf ae73 5dbe dc59 a5be 921d 46be
00000010: 86f2 38bf 5e61 2dbf 63fd 19bf ac0a 92be
00000020: aa8f 19be a489 04be f2a7 b9be 994e 31bf
00000030: 988b 1dbf 9c29 74be 84bf 33bf 08b6 4bbe
00000040: 2100 12bf 58a8 91be 0087 9c3d 7069 b0be
00000050: 448d 1cbf d7c2 3ebe 16a7 4cbe efc5 30bf
00000060: 576c 28bf 9764 1dbf 6acc b0be 7cf0 2dbe
00000070: e96c 03be 6b79 1abf 3311 2bbf e9b4 21be
-0.6573733 -0.2162616 -0.3229512 -0.19347218 -0.7224506 -0.67726696 -0.6015226 -0.28523767
-0.1499621 -0.1294313 -0.36260945 -0.69260556 -0.6154113 -0.23843998 -0.70214105 -0.19893658
-0.57031447 -0.2844875 0.07642937 -0.34455442 -0.61153054 -0.18629013 -0.19985613 -0.6905202
-0.65790313 -0.6148161 -0.34530956 -0.16986269 -0.12834515 -0.6034152 -0.6682312 -0.15791668

conv_layers.5.bias f4 [64]
00000000: 40d9 5cbc 886f cc3d 6c4f 673d d07c f5be
00000010: 5653 883e c40a 21bf c282 863e 6c8e f03d
00000020: 3aa2 5e3e ef19 e1be bf80 873e 0d6a fd3e
00000030: 7128 d13e b09b 48be e642 9e3d a174 1d3e
00000040: 98d7 f63d cfc7 b4be 9fbc 433e 8c21 873e
00000050: 302c 8dbe 46a2 043e 1ac4 0bbe 10dd 9bbd
00000060: d404 67be 0c14 07bf 92ef 14bf 0c11 8cbd
00000070: fefe a2be 864c a9be 8439 d3be 630d 80be
00000080: f4cc b0be 597d 293e 4948 b63e 8081 f83a
00000090: 605c 923e 623d 16bf a09e a2bd 40c2 413e
000000a0: 555c 0e3f 38f5 5abf 04cf cd3e 92af 53bf
000000b0: b232 3abe 4641 31bf 3a2a fb3d 3812 e3bd
000000c0: f434 fd3e 54a2 7bbd 6c0c fc3c 2aae 09be
000000d0: e8c5 79bc 6c74 09be 2cb5 723d aa55 44be
000000e0: 48f7 93be 80cd ea3d c400 8cbe 1180 a5be
000000f0: d303 e3be cab1 883e 980e 56be cea3 c0be
-0.013479531 0.099822104 0.056472227 -0.47946787 0.2662608 -0.6290705 0.26271635 0.11745915
0.21741572 -0.43965098 0.26465413 0.49494973 0.40851167 -0.1959064 0.077276036 0.15376522
0.1205284 -0.35308692 0.19114922 0.26392782 -0.27572775 0.12952527 -0.13649026 -0.07610524
-0.22560436 -0.52764964 -0.58178055 -0.06839189 -0.3183517 -0.33066195 -0.41254818 -0.25010213
-0.34531367 0.16551723 0.35602024 0.0018959492 0.28586102 -0.5868741 -0.079404116 0.18921757
0.5560964 -0.85530424 0.40197003 -0.82689774 -0.18183401 -0.69240224 0.122639135 -0.11087459
0.49454463 -0.061434105 0.030767642 -0.13445345 -0.015244938 -0.13423318 0.05925481 -0.19173303
-0.28899598 0.11464977 -0.27344334 -0.3232427 -0.44338855 0.26698142 -0.20904005 -0.37624973

classifier.7.bias f4 [2]
00000000: 389f 96bd 5208 a13d
-0.07354587 0.07862915
