model/exports/ozwell-i'm-done.onnx (onnx, 26801 bytes, 3 tensors)

conv_layers.0.bias f4 [32]
000000 2a 46 66 bc 2c 38 65 bc 3a 0a 9c bc fe 58 5a bb
       -0.014054814 -0.013990443 -0.019047845 -0.0033317204
000010 f2 d5 75 ba 4c 16 4c 3b 28 c6 08 bb 52 14 b4 bc
       -0.00093778886 0.003114122 -0.0020870063 -0.021982346
000020 94 5e ad bc de 6a 4d bc 84 73 30 bc b2 51 f5 3b
       -0.021163262 -0.012537686 -0.010769729 0.0074865455
000030 a7 fa 94 3c 4d 5f a5 bc 98 1c 0f 3c 51 67 5e bc
       0.018185927 -0.020187045 0.008734845 -0.013574437
000040 04 aa eb bb 11 cb 9f 3b 3d 94 b8 3b be f3 44 3c
       -0.0071918983 0.0048765023 0.0056329058 0.012021003
000050 8e 1d 83 3b 44 11 44 3b 62 c1 e8 bb e1 37 c6 bb
       0.004001326 0.0029917518 -0.007103131 -0.0060491418
000060 7e 5b 6f 3c fc 9b 7e bc 14 44 fd bb eb 4e e9 bc
       0.014609216 -0.015540119 -0.007729063 -0.028480014
000070 f8 e0 b3 bc 96 54 47 bb a1 ce 02 bd 80 99 0d bc
       -0.02195786 -0.0030415407 -0.031935338 -0.008642554

conv_layers.5.bias f4 [64]
000000 07 5c 97 bd 6b 9f de be b6 5e c1 be f2 44 24 bf
       -0.073906 -0.43481 -0.3776757 -0.641677
000010 63 97 0c bf b4 0d e1 3e 3c 65 90 3e cc c8 1c bf
       -0.549185 0.43955767 0.28202236 -0.6124389
000020 3c 2c ea be c6 df ac 3e d7 af c1 be 32 ef 01 bf
       -0.45736873 0.33764476 -0.37829468 -0.5075561
000030 83 4d 2c bf 43 0e c2 be d6 fe 02 bf 3c bd bb 3e
       -0.67305773 -0.37901506 -0.511701 0.36667812
000040 a1 c0 98 be 95 99 13 bf 74 4e 21 bf 49 a1 eb bd
       -0.29834464 -0.5765622 -0.63010335 -0.11505372
000050 ff 10 c5 be 3e 39 3c bf 86 c7 98 3e 3e 46 dc 3e
       -0.3848953 -0.73524845 0.29839724 0.4302234
000060 cd d6 c4 3e e6 36 3b bf 7e fc 34 bf d2 e5 0f bf
       0.3844513 -0.73130643 -0.7069777 -0.5621005
000070 df 9a 26 bf 35 95 a8 3e 1e 9e f4 3e d1 96 e6 bc
       -0.65080065 0.32926336 0.47776884 -0.028148087
000080 12 9e ab 3d 9a 28 d8 3e c1 29 bd be 70 1e a1 be
       0.08379759 0.42218477 -0.36945918 -0.31468534
000090 30 1d 9b 3e b4 1b 3d bf 8a 55 d1 3e b5 e5 e0 be
       0.30295706 -0.73870397 0.40885574 -0.43925253
0000a0 48 27 de be 85 e1 08 bf 84 ac a8 3e ac 8f d8 3e
       -0.43389344 -0.53469115 0.3294412 0.42297113
0000b0 fb 3e b4 bd 78 90 1b bf 9d bf 08 bf fb 23 f5 be
       -0.08801075 -0.60767317 -0.5341738 -0.47879013
0000c0 e7 45 38 bf 54 4b c3 be 32 fd 48 bf c3 b7 82 bf
       -0.7198166 -0.38143408 -0.78511345 -1.021233
0000d0 08 81 1a bf 7f a1 87 3e c4 05 de bd 27 7e 27 bf
       -0.60353136 0.264904 -0.108409435 -0.6542687
0000e0 41 84 02 3f fe f8 17 3f 31 9a 13 bf 2f 76 91 be
       0.50983053 0.59364307 -0.5765715 -0.2841048
0000f0 20 2d 07 bf 58 99 36 bf 33 ca 5a bf f0 1a 40 bf
       -0.5280323 -0.71327734 -0.8546478 -0.75041103

classifier.7.bias f4 [2]
000000 b3 e4 b9 bd 3b 6c 25 bd
       -0.09076824 -0.04038642
