model/exports/ozwell-go.onnx (onnx, 26747 bytes, 3 tensors)

conv_layers.0.bias f4 [32]
0	0xbe17c4cc	-0.14821166
1	0xbe5a6495	-0.21327431
2	0xbea36796	-0.31914967
3	0xbe90de79	-0.28294733
4	0xbe8d42fc	-0.27590168
5	0xbf37568e	-0.71616447
6	0xbe69c928	-0.22830641
7	0xbe5619a6	-0.20908222
8	0xbe35292b	-0.17691486
9	0xbe28be20	-0.16478777
10	0xbe5bd3bc	-0.21467489
11	0xbe9ab111	-0.30213216
12	0xbf33848d	-0.7012413
13	0xbe3b5eae	-0.18297836
14	0xbf42c85c	-0.76086974
15	0xbf41bb65	-0.75676566
16	0xbf326b7e	-0.6969527
17	0xbe64f3ac	-0.22358578
18	0xbe4573bc	-0.1928243
19	0xbe0a6f60	-0.13519049
20	0xbe3a4064	-0.18188626
21	0xbf385deb	-0.7201831
22	0xbe1d2506	-0.15346155
23	0xbe691702	-0.22762683
24	0xbe3f0f06	-0.18658075
25	0xbe74f574	-0.23921758
26	0xbe2c9ea3	-0.1685739
27	0xbe79e5b1	-0.24404027
28	0xbe8e8116	-0.2783286
29	0xbf179fa9	-0.59228
30	0xbf344a28	-0.70425653
31	0xbf295364	-0.6614287

conv_layers.5.bias f4 [64]
0	0xbe26fe34	-0.16307908
1	0x3ea33d3a	0.3188265
2	0xbea780c0	-0.32715416
3	0xbe0c8558	-0.13722742
4	0x3dd58068	0.10424882
5	0xbe57670e	-0.21035406
6	0x3e885736	0.26629037
7	0x3e3db0ef	0.18524526
8	0xbf8e5b63	-1.1121639
9	0xbf0b8df7	-0.54513496
10	0x3d09ac28	0.033611447
11	0x3ce943f8	0.028474793
12	0x3e6c8582	0.23097804
13	0xbdf4b874	-0.11949244
14	0x3e59cb7a	0.21269026
15	0xbc516470	-0.012780294
16	0x3e893ac4	0.26802647
17	0x3d9da960	0.07698321
18	0x3dd0f61c	0.10203192
19	0x3e240b51	0.16019942
20	0x3e25ff9e	0.16210791
21	0x3f12a314	0.5728009
22	0x3e064e96	0.13115916
23	0x3e9df4c8	0.30850816
24	0x3d98a090	0.074525
25	0x3e1c5d30	0.15269923
26	0x3db3566e	0.087567195
27	0x3ebeb68a	0.3724864
28	0xbf204ae8	-0.626143
29	0x3d55a70c	0.05216126
30	0x3d817b1a	0.06322308
31	0xbf1207ca	-0.57043135
32	0x3d1276f8	0.03575799
33	0x3e2cc7ef	0.16873144
34	0x3f265741	0.6497689
35	0x3c857f28	0.016295984
36	0xbf17c904	-0.592911
37	0x3d890b52	0.06691612
38	0xbc2f7de0	-0.010711163
39	0xbce6e9d8	-0.028187677
40	0x3e64ee6e	0.22356579
41	0x3eb33d71	0.35007814
42	0x3f192739	0.59825474
43	0x3dae4e62	0.08511044
44	0xbe1f7334	-0.1557129
45	0xbecc6f4c	-0.39928663
46	0x3e325530	0.17415309
47	0xbf674d1c	-0.90352035
48	0x3dfe1b8c	0.12407598
49	0xbd5e4774	-0.05426736
50	0x3e1e484a	0.15457264
51	0xbde77bae	-0.11302887
52	0x3eb08a9c	0.3448075
53	0xbe3ef7c4	-0.18649203
54	0xbf069054	-0.5256398
55	0xbf32ab46	-0.6979259
56	0x3b790dc0	0.003800258
57	0xbf291090	-0.660409
58	0xbda874a7	-0.08225375
59	0xbedddf60	-0.43334484
60	0xbd03c0c0	-0.032166243
61	0x3de5f1b9	0.112277456
62	0x3ec41f32	0.3830505
63	0x3e998fb8	0.2999246

classifier.7.bias f4 [2]
0	0x3c5e38f6	0.013563385
1	0x3d45da40	0.048303843
